…
,{"stream_name":"stdout","time":108.644178282,"data":"Label :Tomato___healthy(37)\n"}
,{"stream_name":"stdout","time":109.023745802,"data":"Label :Peach___Bacterial_spot(16)\n"}
,{"stream_name":"stdout","time":125.807117781,"data":"----------------------------------------------------------------\n"}
,{"stream_name":"stdout","time":125.807164826,"data":"        Layer (type)               Output Shape         Param #\n"}
,{"stream_name":"stdout","time":125.807191946,"data":"================================================================\n"}
,{"stream_name":"stdout","time":125.80719841,"data":"            Conv2d-1         [-1, 64, 256, 256]           1,792\n"}
,{"stream_name":"stdout","time":125.807207412,"data":"       BatchNorm2d-2         [-1, 64, 256, 256]             128\n"}
,{"stream_name":"stdout","time":125.807218604,"data":"              ReLU-3         [-1, 64, 256, 256]               0\n"}
,{"stream_name":"stdout","time":125.807226368,"data":"            Conv2d-4        [-1, 128, 256, 256]          73,856\n"}
,{"stream_name":"stdout","time":125.807232373,"data":"       BatchNorm2d-5        [-1, 128, 256, 256]             256\n"}
,{"stream_name":"stdout","time":125.807237674,"data":"              ReLU-6        [-1, 128, 256, 256]               0\n"}
,{"stream_name":"stdout","time":125.807243007,"data":"         MaxPool2d-7          [-1, 128, 64, 64]               0\n"}
,{"stream_name":"stdout","time":125.807249184,"data":"            Conv2d-8          [-1, 128, 64, 64]         147,584\n"}
,{"stream_name":"stdout","time":125.807266713,"data":"       BatchNorm2d-9          [-1, 128, 64, 64]             256\n"}
,{"stream_name":"stdout","time":125.807271946,"data":"             ReLU-10          [-1, 128, 64, 64]               0\n"}
,{"stream_name":"stdout","time":125.807276524,"data":"           Conv2d-11          [-1, 128, 64, 64]         147,584\n"}
,{"stream_name":"stdout","time":125.807281348,"data":"      BatchNorm2d-12          [-1, 128, 64, 64]             256\n"}
,{"stream_name":"stdout","time":125.807286402,"data":"             ReLU-13          [-1, 128, 64, 64]               0\n"}
,{"stream_name":"stdout","time":125.807293307,"data":"           Conv2d-14          [-1, 256, 64, 64]         295,168\n"}
,{"stream_name":"stdout","time":125.807303884,"data":"      BatchNorm2d-15          [-1, 256, 64, 64]             512\n"}
,{"stream_name":"stdout","time":125.807311352,"data":"             ReLU-16          [-1, 256, 64, 64]               0\n"}
,{"stream_name":"stdout","time":125.807316712,"data":"        MaxPool2d-17          [-1, 256, 16, 16]               0\n"}
,{"stream_name":"stdout","time":125.807321616,"data":"           Conv2d-18          [-1, 512, 16, 16]       1,180,160\n"}
,{"stream_name":"stdout","time":125.80732622,"data":"      BatchNorm2d-19          [-1, 512, 16, 16]           1,024\n"}
,{"stream_name":"stdout","time":125.807330978,"data":"             ReLU-20          [-1, 512, 16, 16]               0\n"}
,{"stream_name":"stdout","time":125.807335908,"data":"        MaxPool2d-21            [-1, 512, 4, 4]               0\n"}
,{"stream_name":"stdout","time":125.807341236,"data":"           Conv2d-22            [-1, 512, 4, 4]       2,359,808\n"}
,{"stream_name":"stdout","time":125.807345816,"data":"      BatchNorm2d-23            [-1, 512, 4, 4]           1,024\n"}
,{"stream_name":"stdout","time":125.807361892,"data":"             ReLU-24            [-1, 512, 4, 4]               0\n"}
,{"stream_name":"stdout","time":125.807366387,"data":"           Conv2d-25            [-1, 512, 4, 4]       2,359,808\n"}
,{"stream_name":"stdout","time":125.807370918,"data":"      BatchNorm2d-26            [-1, 512, 4, 4]           1,024\n"}
,{"stream_name":"stdout","time":125.80737555,"data":"             ReLU-27            [-1, 512, 4, 4]               0\n"}
,{"stream_name":"stdout","time":125.807380448,"data":"        MaxPool2d-28            [-1, 512, 1, 1]               0\n"}
,{"stream_name":"stdout","time":125.807389754,"data":"          Flatten-29                  [-1, 512]               0\n"}
,{"stream_name":"stdout","time":125.80739944,"data":"           Linear-30                   [-1, 38]          19,494\n"}
,{"stream_name":"stdout","time":125.807431375,"data":"================================================================\n"}
,{"stream_name":"stdout","time":125.807436971,"data":"Total params: 6,589,734\n"}
,{"stream_name":"stdout","time":125.807441512,"data":"Trainable params: 6,589,734\n"}
,{"stream_name":"stdout","time":125.807446113,"data":"Non-trainable params: 0\n"}
,{"stream_name":"stdout","time":125.807450783,"data":"----------------------------------------------------------------\n"}
…
